heart_disease_model.pth (torch, 11184 bytes, 3 tensors)

weight f4 [128, 13]
0	0xbea5245a	-0.32254297
1	0xbe2decb3	-0.16984825
2	0x3ebe243f	0.3713703
3	0xbe73fd7d	-0.23827167
4	0xbeb77f67	-0.35839388
5	0xbdb0f92f	-0.08641278
6	0xbe35a464	-0.17738491
7	0xba890264	-0.0010452983
8	0x3e0670b9	0.13128938
9	0xbd82e188	-0.06390673
10	0xbe1a47f0	-0.15066504
11	0x3d9c72a8	0.076390564
12	0xbe1ab506	-0.15108117
13	0x3b80cda8	0.003930766
14	0x3ec12620	0.377244
15	0x3dd7f4ca	0.10544737
16	0xbe1dd44e	-0.15413019
17	0x3e0c2d73	0.13689213
18	0xbd118c2f	-0.03553408
19	0x3e1e7052	0.15472534
20	0xbe871abd	-0.26387587
21	0xbdd9bf27	-0.106321625
22	0x3dd81657	0.10551136
23	0xbd26614b	-0.04062013
24	0x3e9409ad	0.28913632
25	0xbcbd7000	-0.023124695
26	0x3e394cde	0.18095729
27	0x3e510944	0.20413691
28	0x3e40b72d	0.18819876
29	0x3ea498cd	0.32147828
30	0xbe4ebc99	-0.20189132
31	0x3c36eed5	0.01116534
32	0x3b311c6c	0.0027024997
33	0xbdbd5f02	-0.09246637
34	0x3d304722	0.043036588
35	0x3df54df1	0.11977757
36	0xbe14347c	-0.14473146
37	0xbdfacab4	-0.12245694
38	0x3d00fe72	0.031492658
39	0x3e4a44e5	0.19752844
40	0xbe34e535	-0.1766556
41	0xbdcfb67e	-0.101422295
42	0x3ce6fb66	0.028196048
43	0x3d4d4848	0.05011776
44	0xbd38b0e0	-0.045090556
45	0xbdbf9b0a	-0.09355743
46	0x3b30910e	0.0026941928
47	0x3d6abec4	0.057310835
48	0xbe88ba92	-0.26704842
49	0x3da60d7b	0.0810804
50	0x3ad1535a	0.0015970275
51	0xbe062abb	-0.13102238
52	0xbd89918a	-0.067172125
53	0xbe362a41	-0.17789556
54	0xbd07e6d8	-0.033179134
55	0xbea865c4	-0.3289014
56	0xbdf8db88	-0.12151247
57	0xbe2204aa	-0.15822092
58	0xbe4f4bb3	-0.2024372
59	0x3d952491	0.07282365
60	0xbe4b69bf	-0.19864558
61	0xbe680c77	-0.22661005
62	0x3e5a3ab4	0.21311456
63	0xbde17915	-0.11009423
64	0x3d85a37a	0.06525321
65	0x3dd3d54e	0.10343419
66	0x3e2bb429	0.16767944
67	0xbe2f7678	-0.17135036
68	0xbe96972a	-0.29412204
69	0x3bce7dda	0.006301624
70	0x3dcd90ab	0.10037359
71	0xbd5c1745	-0.05373313
72	0xbe8508f9	-0.25983408
73	0xbe51c439	-0.20485009
74	0x3d498678	0.049200505
75	0xbe697c2d	-0.22801276
76	0x3e8124c2	0.25223356
77	0xbde264e5	-0.110544
78	0xbe5860b3	-0.21130638
79	0xbd93aba8	-0.07210475
80	0x3c0be7c8	0.008539148
81	0x3d5facb3	0.05460806
82	0x3e4b832e	0.1987426
83	0xbe81d4b5	-0.25357595
84	0xbc819186	-0.015816461
85	0x3e1f6dcc	0.15569228
86	0xbe51eefc	-0.20501322
87	0x3e159775	0.14608558
88	0xbe99f588	-0.30070138
89	0x3dec5ece	0.1154152
90	0xbe9aed2f	-0.30259082
91	0x3e3d222f	0.18470071
92	0xbe51a911	-0.2047465
93	0xbd14a171	-0.036286775
94	0x3dee4ef6	0.11636154
95	0xbb6865da	-0.00354611
96	0xbd206905	-0.039162654
97	0x3c691c06	0.014227873
98	0xbd9a2cb9	-0.075280614
99	0xbe0e13bb	-0.13874714
100	0x3e051e39	0.1299981
101	0xbe0c0739	-0.1367463
102	0x3d108755	0.035285313
103	0xbdef8a46	-0.116962954
104	0x3e7a121a	0.24420968
105	0x3d6ab558	0.05730185
106	0xbd189d45	-0.03725936
107	0x3e4db939	0.20090188
108	0xbe8a60f5	-0.27027097
109	0x3e12018e	0.14258406
110	0x3e3479b2	0.17624548
111	0xbe4148c9	-0.18875422
112	0xbe721e75	-0.23644431
113	0x3e483523	0.1955152
114	0x3e46a073	0.19397144
115	0x3d21c83e	0.039497606
116	0x3e59d46e	0.21272442
117	0x3e226156	0.15857443
118	0xbd3cb1b2	-0.0460679
119	0x3dfde1be	0.123965725
120	0xbe83b738	-0.25725722
121	0xbdbcbcc3	-0.09215691
122	0x3e98761c	0.2977761
123	0x3e19e4f6	0.15028748
124	0xbd741034	-0.059585765
125	0x3abf1547	0.0014578485
126	0xbde62d92	-0.112391606
127	0xbe6865cb	-0.22695081
128	0x3dbce84c	0.092239946
129	0x3be1f8bc	0.0068961065
130	0xbdb9c07e	-0.09069918
131	0x3dc26630	0.09492147
132	0x3e28c5f2	0.1648176
133	0x3e2e0eb4	0.16997796
134	0xbd88671f	-0.06660294
135	0x3cf6404c	0.030059956
136	0x3e4923dc	0.19642586
137	0xbdc96492	-0.098336354
138	0x3db82b8a	0.089926794
139	0xbe48fe5c	-0.1962828
140	0xbdb31f0f	-0.08746158
141	0x3c28642e	0.010277791
142	0x3ce6297e	0.028095957
143	0xbe4d5e9f	-0.20055626
144	0xbd73be0a	-0.059507407
145	0xbdf0267d	-0.11726091
146	0xbe56e35b	-0.20985167
147	0xbe1a4a67	-0.15067445
148	0xbeabdbb7	-0.33566067
149	0x3e80ca5e	0.25154394
150	0x3dc00ed4	0.09377828
151	0xbe03eb86	-0.12882814
152	0x3dc4d170	0.096102595
153	0xbe41ef0e	-0.18938848
154	0xbe2cc9e0	-0.16873884
155	0xbeae0cab	-0.3399404
156	0x3e80ff5c	0.25194824
157	0x3da55206	0.08072285
158	0x3e7c590d	0.24643345
159	0xbda56258	-0.08075398
160	0xbe90be62	-0.2827025
161	0x3e9e873f	0.3096256
162	0x3e003087	0.12518512
163	0x3d925f24	0.07147053
164	0x3e37425a	0.17896405
165	0x3e2b504a	0.16729847
166	0xbe58697b	-0.21133988
167	0xbda495f5	-0.080364145
168	0x3e3d0130	0.18457484
169	0x3d807ec9	0.06274182
170	0x3df44629	0.119274445
171	0xbe9fa4a9	-0.31180313
172	0x3e88720d	0.26649514
173	0xbcccb7ce	-0.024989989
174	0x3dcb7b39	0.09935612
175	0xbeb3f591	-0.3514829
176	0xbe7331d4	-0.23749477
177	0x3e854012	0.26025444
178	0x3d8e0986	0.0693541
179	0xbd9f55a4	-0.077800065
180	0x3ea5752f	0.32315966
181	0x3ea173f3	0.31533775
182	0x3df0a049	0.11749322
183	0xbdfe2dfc	-0.124111146
184	0x3d14b45d	0.03630482
185	0xbe871fc1	-0.26391414
186	0xbe902a9e	-0.28157514
187	0xbdc2f5cb	-0.095195375
188	0xbd429eea	-0.047514834
189	0xbdd71eef	-0.10503947
190	0x3d908d8b	0.07058247
191	0x3d317c68	0.043331534
192	0x3e4d9d4d	0.20079537
193	0xbe908645	-0.2822744
194	0x3daf8ea7	0.08572131
195	0xbe0a0eae	-0.13482162
196	0xbe6dbabf	-0.23215769
197	0xbdbd549e	-0.09244655
198	0x3d175b2e	0.03695219
199	0xbd92d290	-0.07169068
200	0x3e25e001	0.16198732
201	0xbd8caf4f	-0.06869375
202	0x3e765e82	0.2405949
203	0xbd9bd717	-0.076093845
204	0xbe6ae206	-0.22937784
205	0x3db80108	0.08984572
206	0xbe15001f	-0.14550827
207	0xbe65c141	-0.22437002
208	0xbe629af9	-0.2212943
209	0x3e1b3c86	0.15159807
210	0xbe5ab3f8	-0.21357715
211	0xbe780e5c	-0.24224228
212	0xbdebf03b	-0.1152043
213	0xbe4bf316	-0.19916949
214	0xbdf99a39	-0.12187619
215	0xbdfbec0d	-0.123008825
216	0x3d1bc80a	0.03803257
217	0x3e0d6f70	0.13812041
218	0xbd78ae4d	-0.0607131
219	0xbce2c453	-0.027681505
220	0x3d8ba86a	0.06819232
221	0xbe91e046	-0.2849142
222	0xbeba0af8	-0.36336493
223	0xbd07f605	-0.033193607
224	0xbe3d4ec6	-0.18487081
225	0x3e5223fc	0.2052154
226	0x3e74f576	0.23921761
227	0x3e24594e	0.16049692
228	0xbc7cc2e7	-0.015427328
229	0xbe427de7	-0.1899334
230	0xbce8bd15	-0.028410474
231	0xbdc7d2da	-0.097570136
232	0xbda725d6	-0.081615135
233	0x3dc15133	0.09439316
234	0xbdadb706	-0.084821746
235	0x3e8aebc1	0.2713299
236	0x3e02ff15	0.12792619
237	0x3d8f3e31	0.06994284
238	0xbe290c2c	-0.1650855
239	0x3eb107c6	0.34576243
240	0xbe0d5d57	-0.13805138
241	0x3ebbefea	0.36706477
242	0x3dced3f8	0.100990236
243	0xbd18dda5	-0.03732075
244	0xbe29e669	-0.16591801
245	0xbec5477b	-0.38531098
246	0xbe9e72f9	-0.30947092
247	0x3e3fb403	0.18721013
248	0xbea3c50e	-0.31986278
249	0x3e09a2ea	0.13441053
250	0xbe53ae79	-0.20672025
251	0xbc34c67c	-0.0110336505
252	0xbea23d0f	-0.3168721
253	0xbdd0e59a	-0.10200043
254	0xbe70face	-0.23533174
255	0xbe621e8d	-0.22081967

bias f4 [128]
0	0x3e428022	0.18994191
1	0xbca81b1a	-0.020520736
2	0xbe4352c2	-0.19074538
3	0x3e254052	0.16137818
4	0xbc296bf7	-0.010340682
5	0x3e5a170b	0.21297853
6	0xbc5c4161	-0.013443322
7	0x3dfae986	0.12251572
8	0x3d8d2ef1	0.06893719
9	0x3e2f55cb	0.17122571
10	0xbdc009ef	-0.09376895
11	0x3df6f6db	0.12058803
12	0xbd0e40de	-0.03472983
13	0xbbadfd34	-0.005309725
14	0x3ccdede6	0.025137853
15	0x3e9e7fd6	0.30956906
16	0x3e0116c5	0.12606342
17	0xbdf20b7f	-0.11818599
18	0xbe1a0c6d	-0.15043803
19	0x3dbb34a0	0.09140897
20	0x3e24049c	0.16017383
21	0x3eb995c8	0.36247087
22	0xbd7db038	-0.061935633
23	0x3e34beff	0.17650984
24	0x3d83d9ad	0.06438003
25	0x3e4a1b06	0.19736871
26	0xbc1193c7	-0.0088853305
27	0xbe8b49c1	-0.27204707
28	0xbd321fa5	-0.04348721
29	0xbcc3aab9	-0.023885118
30	0xbd7d58ae	-0.06185215
31	0x3c6f04f7	0.014588586
32	0xbe411746	-0.18856534
33	0x3e69dd25	0.22838266
34	0xbcde3404	-0.027124412
35	0x3d8e6e12	0.06954588
36	0x3ea2cf73	0.31798896
37	0x3e8ad466	0.27115172
38	0xbe3e262f	-0.18569253
39	0x3e9c4c6c	0.30527055
40	0xbd08af25	-0.033370156
41	0x3e30e032	0.17273024
42	0xbcf8dc18	-0.030378386
43	0xbd4a3b72	-0.049373098
44	0xbe097fbc	-0.13427633
45	0x3e51f97d	0.20505328
46	0xbcfeb294	-0.031091012
47	0x3e25f519	0.16206779
48	0x3dc24a89	0.09486873
49	0x3de31e9d	0.110898234
50	0xbda3f6e3	-0.08006074
51	0x3a95a8ce	0.0011418106
52	0xbe7ded8f	-0.24797653
53	0xbd75c2cb	-0.060000222
54	0xbe76e90c	-0.24112338
55	0x3e29b6b1	0.16573597
56	0x3e9e7076	0.30945176
57	0xb7a04c20	-1.9108935e-05
58	0xbe5f282a	-0.21792665
59	0x3e9c5f19	0.30541304
60	0x3ea379fb	0.31929
61	0xbdcc08c6	-0.09962611
62	0xbd09aeec	-0.033614084
63	0x3d3563df	0.044284698
64	0xbdf8b17d	-0.12143228
65	0xbe146f28	-0.14495528
66	0x3c0f55de	0.0087485
67	0x3e9f5772	0.31121403
68	0x3de6f23e	0.11276673
69	0xbdcc51f6	-0.0997657
70	0xbd258772	-0.040412374
71	0x3e39e346	0.18153104
72	0x3dbfa14e	0.09356938
73	0x3e73c5e0	0.23805952
74	0x3e4bc831	0.19900586
75	0x3e57c59c	0.21071476
76	0x3dfd87dd	0.123794295
77	0xbd094716	-0.03351506
78	0x3ea2ca41	0.31794932
79	0x3e5130cb	0.2042877
80	0xbca0b9ba	-0.019619811
81	0x3d0391cf	0.032121476
82	0xbd98ac63	-0.07454755
83	0x3ea3c595	0.3198668
84	0x3e492079	0.19641294
85	0xbe2a47f2	-0.16629007
86	0x3e9d5905	0.3073198
87	0x3d19e500	0.037571907
88	0x3cfa0e4f	0.030524401
89	0x3cf48582	0.029848818
90	0x3de6e7dc	0.112746924
91	0xbde73093	-0.11288562
92	0x3c7e36ef	0.015516027
93	0xbdfc1c00	-0.12310028
94	0x3e104994	0.14090568
95	0xbd67b339	-0.056567404
96	0xbaa062f3	-0.001223652
97	0x3eada97d	0.33918372
98	0x3dbd8f18	0.092558086
99	0xbe26b89c	-0.1628136
100	0x3d835f94	0.064147145
101	0xbd0f0a17	-0.03492173
102	0xbdf55f57	-0.11981075
103	0xbe035feb	-0.12829559
104	0xbd4d0e30	-0.05006236
105	0xbe2bbe73	-0.1677187
106	0xbe36b55f	-0.17842625
107	0xbe61b7b3	-0.22042732
108	0x3d9c8521	0.0764258
109	0xbe3dbb8c	-0.18528575
110	0xbdddd4e0	-0.10831618
111	0x3ea2ff77	0.3183553
112	0xbdd5e300	-0.104436874
113	0xbe4abb4c	-0.1979801
114	0xbcb69775	-0.022289017
115	0x3e0dd4b8	0.13850677
116	0x3e37c02e	0.17944404
117	0xbe503284	-0.2033177
118	0x3d2d19e1	0.04226101
119	0x3e808ccf	0.25107428
120	0x3e55d3f0	0.20881629
121	0xbd9e18a2	-0.07719542
122	0xbdfe583b	-0.124191724
123	0xbe8fd4f7	-0.28092167
124	0xbe310ed0	-0.17290807
125	0xbe5f3597	-0.21797787
126	0xbda7073c	-0.08155677
127	0x3e9481d6	0.29005307

weight f4 [1, 128]
0	0x3dadf9c5	0.084949054
1	0xbdb3ce89	-0.08779628
2	0xbcc5a97f	-0.024128674
3	0x3d892129	0.06695778
4	0xbd264c2f	-0.040599998
5	0xbddb5eb0	-0.107114196
6	0x3d577cc8	0.052609235
7	0x3ca60038	0.020263776
8	0x3c0b101e	0.008487729
9	0x3d606df3	0.054792356
10	0x3c0f0228	0.008728541
11	0x3e0b1353	0.1358159
12	0x3d406eb9	0.046980593
13	0xbdff8be4	-0.12477854
14	0x3daf8b8e	0.0857154
15	0x3de05131	0.10952986
16	0xbdea6461	-0.11444927
17	0x3dc5df84	0.09661773
18	0x3dcac236	0.09900324
19	0x3e0f9349	0.14021029
20	0x3d4f4f50	0.050612748
21	0xbdb81f69	-0.08990366
22	0x3e1cf83c	0.15329069
23	0xbcacd593	-0.021097934
24	0xbcf761f7	-0.03019808
25	0xbdef311d	-0.116792895
26	0x3e0fa7f5	0.14028914
27	0x3d9187f6	0.071060106
28	0xbdcc7cd6	-0.09984748
29	0xbe06538f	-0.13117813
30	0xbb56f6ed	-0.0032800988
31	0x3b4ee888	0.0031571705
32	0x3dd98080	0.106202126
33	0x3dc6526f	0.09683692
34	0xbe0c2a92	-0.13688114
35	0xbe1a3799	-0.15060271
36	0x3ceadd78	0.028670058
37	0x3e22dba3	0.15904097
38	0xbbfed187	-0.0077764424
39	0x3e14a7e1	0.14517166
40	0x3d210e68	0.03932038
41	0xbdc720f7	-0.097230844
42	0xbde53c35	-0.11193124
43	0xbdd176d9	-0.102277465
44	0xbe158047	-0.14599715
45	0x3d98da7d	0.07463548
46	0x3dc513b2	0.09622897
47	0x3e0cee0c	0.13762683
48	0xbe31b41f	-0.17353867
49	0x3d745b64	0.05965747
50	0xbde811bc	-0.113315076
51	0xbdc0f135	-0.094210066
52	0xbd094243	-0.033510458
53	0x3dc5e465	0.096627034
54	0x3cc7bfbc	0.024383418
55	0xbd61f342	-0.05516363
56	0x3d819d2a	0.06328805
57	0xbde10003	-0.1098633
58	0x3e0f3b25	0.13987406
59	0xbded16bc	-0.11576602
60	0xbdd86cdf	-0.105676405
61	0x3dcbc3b2	0.09949435
62	0x3e1bfd99	0.15233459
63	0x3e190a1e	0.14945266
64	0xbdb0ef99	-0.086394496
65	0x3dbc6dc2	0.09200622
66	0xbe07e1e2	-0.13269761
67	0xbca66c47	-0.020315303
68	0x3e15fc51	0.14647032
69	0x3c13d160	0.009022087
70	0xbe1d85e9	-0.15383114
71	0x3de8c06f	0.11364829
72	0x3d1db0bc	0.038498625
73	0xbc10ac2f	-0.008830114
74	0x3e0e38bc	0.1388883
75	0x3d10ae10	0.03532225
76	0xbd3ea9d7	-0.04654869
77	0x3e17659a	0.14784852
78	0x3d78d2d6	0.060747944
79	0xbe021627	-0.12703763
80	0xbd9ea083	-0.07745459
81	0x3df4371f	0.11924576
82	0x3e114502	0.1418648
83	0xbe1df7b2	-0.1542652
84	0xbe2b5b5a	-0.16734067
85	0x3dd997b5	0.10624639
86	0xbe017958	-0.12643945
87	0xbcdc9a3f	-0.026929019
88	0x3de8054f	0.113291375
89	0x3d991f45	0.07476667
90	0xbe1bbb25	-0.15208109
91	0xbe16493a	-0.14676371
92	0xbe166bcf	-0.14689563
93	0xbc34b559	-0.011029565
94	0xbe0b01cb	-0.13574903
95	0xbde24459	-0.110481925
96	0x3dbb530d	0.091467
97	0x3e0cb85f	0.13742207
98	0x3e00d866	0.1258255
99	0xbdd847f3	-0.10560598
100	0x3cc475a5	0.023981879
101	0x3d3c6c25	0.046001572
102	0xbd6ed0d8	-0.058304638
103	0x3d2479f3	0.040155362
104	0xbc389d75	-0.011268009
105	0xbdb71c9a	-0.08941002
106	0xba5bb3c3	-0.00083809736
107	0x39cb6313	0.00038792993
108	0xba94ea6f	-0.001136137
109	0x3e04d558	0.12972009
110	0x3d9d5703	0.07682612
111	0x3e00410e	0.12524816
112	0xbca88ea2	-0.020575825
113	0xbd08c0f3	-0.033387136
114	0x3e23b84e	0.15988275
115	0x3bca5c5c	0.006175561
116	0xbdb6c47b	-0.089241944
117	0x3da57dc8	0.080806315
118	0xbd09397d	-0.03350209
119	0x3d96d751	0.07365287
120	0xbce74d12	-0.028234992
121	0xbe2b3668	-0.16719973
122	0xbe1ca2e4	-0.15296513
123	0x3d106db8	0.035260886
124	0xbd0ec942	-0.034859903
125	0x3c3a860e	0.0113845
126	0x3e26835a	0.16261044
127	0x3dc05d78	0.09392828
